2023-04-12,16:21:27 | INFO | Running with a single process. Device cuda:0.
2023-04-12,16:21:27 | INFO | Loaded coca_ViT-L-14 model config.
2023-04-12,16:21:30 | INFO | Loading pretrained coca_ViT-L-14 weights (mscoco_finetuned_CoCa-ViT-L-14-laion2B-s13B-b90k.bin).
2023-04-12,16:21:32 | INFO | Model:
2023-04-12,16:21:32 | INFO | CoCa(
  (text): TextTransformer(
    (token_embedding): Embedding(49408, 768)
    (transformer): Transformer(
      (resblocks): ModuleList(
        (0-11): 12 x ResidualAttentionBlock(
          (ln_1): LayerNorm((768,), eps=1e-05, elementwise_affine=True)
          (attn): MultiheadAttention(
            (out_proj): NonDynamicallyQuantizableLinear(in_features=768, out_features=768, bias=True)
          )
          (ls_1): Identity()
          (ln_2): LayerNorm((768,), eps=1e-05, elementwise_affine=True)
          (mlp): Sequential(
            (c_fc): Linear(in_features=768, out_features=3072, bias=True)
            (gelu): GELU(approximate='none')
            (c_proj): Linear(in_features=3072, out_features=768, bias=True)
          )
          (ls_2): Identity()
        )
      )
    )
    (ln_final): LayerNorm((768,), eps=1e-05, elementwise_affine=True)
  )
  (visual): VisionTransformer(
    (patchnorm_pre_ln): Identity()
    (conv1): Conv2d(3, 1024, kernel_size=(14, 14), stride=(14, 14), bias=False)
    (patch_dropout): Identity()
    (ln_pre): LayerNorm((1024,), eps=1e-05, elementwise_affine=True)
    (transformer): Transformer(
      (resblocks): ModuleList(
        (0-23): 24 x ResidualAttentionBlock(
          (ln_1): LayerNorm((1024,), eps=1e-05, elementwise_affine=True)
          (attn): MultiheadAttention(
            (out_proj): NonDynamicallyQuantizableLinear(in_features=1024, out_features=1024, bias=True)
          )
          (ls_1): Identity()
          (ln_2): LayerNorm((1024,), eps=1e-05, elementwise_affine=True)
          (mlp): Sequential(
            (c_fc): Linear(in_features=1024, out_features=4096, bias=True)
            (gelu): GELU(approximate='none')
            (c_proj): Linear(in_features=4096, out_features=1024, bias=True)
          )
          (ls_2): Identity()
        )
      )
    )
    (attn_pool): AttentionalPooler(
      (attn): MultiheadAttention(
        (out_proj): NonDynamicallyQuantizableLinear(in_features=768, out_features=768, bias=True)
      )
      (ln_q): LayerNorm((768,), eps=1e-05, elementwise_affine=True)
      (ln_k): LayerNorm((1024,), eps=1e-05, elementwise_affine=True)
    )
    (ln_post): LayerNorm((768,), eps=1e-05, elementwise_affine=True)
  )
  (text_decoder): MultimodalTransformer(
    (resblocks): ModuleList(
      (0-11): 12 x ResidualAttentionBlock(
        (ln_1): LayerNorm((768,), eps=1e-05, elementwise_affine=True)
        (attn): MultiheadAttention(
          (out_proj): NonDynamicallyQuantizableLinear(in_features=768, out_features=768, bias=True)
        )
        (ls_1): Identity()
        (ln_2): LayerNorm((768,), eps=1e-05, elementwise_affine=True)
        (mlp): Sequential(
          (c_fc): Linear(in_features=768, out_features=3072, bias=True)
          (gelu): GELU(approximate='none')
          (c_proj): Linear(in_features=3072, out_features=768, bias=True)
        )
        (ls_2): Identity()
      )
    )
    (cross_attn): ModuleList(
      (0-11): 12 x ResidualAttentionBlock(
        (ln_1): LayerNorm((768,), eps=1e-05, elementwise_affine=True)
        (attn): MultiheadAttention(
          (out_proj): NonDynamicallyQuantizableLinear(in_features=768, out_features=768, bias=True)
        )
        (ls_1): Identity()
        (ln_1_kv): LayerNorm((768,), eps=1e-05, elementwise_affine=True)
        (ln_2): LayerNorm((768,), eps=1e-05, elementwise_affine=True)
        (mlp): Sequential(
          (c_fc): Linear(in_features=768, out_features=3072, bias=True)
          (gelu): GELU(approximate='none')
          (c_proj): Linear(in_features=3072, out_features=768, bias=True)
        )
        (ls_2): Identity()
      )
    )
    (ln_final): LayerNorm((768,), eps=1e-05, elementwise_affine=True)
  )
)
2023-04-12,16:21:32 | INFO | Params:
2023-04-12,16:21:32 | INFO |   accum_freq: 1
2023-04-12,16:21:32 | INFO |   aug_cfg: {}
2023-04-12,16:21:32 | INFO |   batch_size: 6
2023-04-12,16:21:32 | INFO |   beta1: 0.9
2023-04-12,16:21:32 | INFO |   beta2: 0.98
2023-04-12,16:21:32 | INFO |   checkpoint_path: ./logs/2023_04_12-16_21_27-model_coca_ViT-L-14-lr_1e-05-b_6-j_2-p_amp/checkpoints
…
